QSAR_parameters.pt (torch, 88483 bytes, 15 tensors)

weight f4 [4, 1, 5, 5]
000000 31 93 21 3e 77 da 9b 3e 93 05 22 3d fe 70 25 3e
       0.15778805 0.30440113 0.039556097 0.16156384
000010 b1 02 c1 3d a9 ef 5c 3d 08 f3 97 3e 0c 1e 12 be
       0.094243415 0.053939495 0.29677606 -0.14269274
000020 f6 5e fa be 77 df df 3d 3d 19 ff 3e 99 ff b6 bd
       -0.48900574 0.109312944 0.49823943 -0.0893547
000030 18 6c 38 be 95 0a d1 be 6a 56 24 bd 3c c9 ab 3d
       -0.18009984 -0.40828386 -0.040121473 0.08387992
000040 ad 31 72 3e cf 6d ad be 47 44 d0 bd 7c 5b 1b bd
       0.23651762 -0.3387284 -0.10169273 -0.037929043
000050 75 1e ff be 20 0e e1 bd 27 b5 9d be 78 14 b8 3d
       -0.49827924 -0.10989022 -0.3080227 0.08988279
000060 d0 26 bd 3d 1c a5 2c bf a9 5a ad bd 53 c1 4a be
       0.092359185 -0.67439437 -0.08464558 -0.1980031
000070 5a 9a 35 3e 8d 8b 2b be 1a 66 ff be ea 21 0d be
       0.17734662 -0.16752453 -0.49882585 -0.13782468
000080 b4 9b cf bd ba ad 70 3d 14 f2 96 be 7c 0d b9 3e
       -0.1013712 0.05875943 -0.29481566 0.361431
000090 a0 a6 e2 bd 54 8b b1 3e b3 7e 36 bf 72 26 a1 3e
       -0.110669374 0.3467661 -0.7128708 0.31474644
0000a0 da 83 15 3e 75 04 9a 3e ec c1 20 be cd a2 17 bf
       0.14601079 0.30081525 -0.15698975 -0.5923279
0000b0 7b 9e 97 3c 5c 38 42 3e 90 5a fd be 36 34 34 bd
       0.018508187 0.18966812 -0.49483156 -0.043995105
0000c0 57 fa d9 be cb db a0 3e 7f 01 b4 3e 13 8b b5 3e
       -0.42573807 0.3141769 0.3515739 0.35457668
0000d0 31 e7 e2 3d 4b dd 86 3e 6f 46 7b be c7 1a d4 be
       0.110792525 0.26340708 -0.24538587 -0.4142668
0000e0 a6 66 a5 3d 7b a1 9f 3d 3d 46 61 be 3e d6 51 be
       0.08076219 0.07794472 -0.2199945 -0.20491883
0000f0 2a 48 28 bf 74 60 24 be c8 f8 65 3d 89 4b 5e be
       -0.65735114 -0.16052419 0.05614546 -0.21708502
000100 72 2b 1b bf d2 b4 a9 be 07 49 62 3d 65 e4 15 3e
       -0.6061317 -0.33145767 0.055245426 0.14637907
000110 9f 16 20 be 51 bb 68 3e 4a c3 3a 3e e7 12 16 3e
       -0.1563363 0.22727706 0.1823856 0.14655648
000120 5e 6c 38 3e 35 03 c2 bd 7a 7d 82 bf 8b ac f3 3d
       0.18010089 -0.09473268 -1.0194542 0.11898144
000130 be 41 82 be 06 5e 3d be 6a d5 d5 bc 8f 1d 68 3e
       -0.25440782 -0.18492898 -0.02610274 0.22667526
000140 14 d0 ae 3d 7c 9a 93 bf 69 ac 65 3e db 30 8b bf
       0.085357815 -1.153152 0.2242905 -1.0874285
000150 a1 75 ca 3e 2b 2d b5 bc 10 d2 a0 3e 97 cb 00 3e
       0.3954287 -0.022116264 0.31410265 0.12577663
000160 33 82 78 bc 8b a5 f9 3e 27 65 0d 3e 41 9d 6c bd
       -0.015167761 0.48759112 0.13808118 -0.057767157
000170 13 e5 19 be 01 3a d9 3d 9e 9c 88 3e b2 53 8f 3e
       -0.15028791 0.106067665 0.2668199 0.27993542
000180 fd 5e 85 3e 3d 4a d1 be b4 7e 14 bd 93 38 0b 3e
       0.26049033 -0.40876952 -0.036253646 0.135958

bias f4 [4]
000000 09 55 9f bd 69 98 21 bd c2 42 7b bd e5 87 63 be
       -0.07779891 -0.03945199 -0.061342962 -0.22219808

weight f4 [8, 4, 3, 3]
000000 2b 87 7e 3d a5 e1 6f 3e b7 61 90 3e b5 58 a6 3c
       0.062140625 0.2342592 0.2819955 0.02030597
000010 c5 d5 48 3d 8c b5 ec be 8e 91 19 3d 77 09 1d 3d
       0.04903199 -0.4623226 0.037492327 0.038339105
000020 b7 41 ec be b0 6c 37 be a6 e8 cd 3d 13 41 49 3e
       -0.46143886 -0.17912555 0.1005414 0.1965373
000030 18 8a b0 3e ff 58 02 bd 86 e6 df 3e 20 25 0b 3e
       0.34480357 -0.031823155 0.43730563 0.13588381
000040 ec 3c a3 bd ac e9 f9 3d 04 26 ea bc 05 86 64 3e
       -0.07970604 0.122027725 -0.02858258 0.2231675
000050 f1 f3 cb 3d e9 ee a4 be f7 a3 62 bd ce 36 0b be
       0.099586375 -0.32213524 -0.05533215 -0.13595125
000060 70 6a 78 3d b1 7c ab 3d 28 d0 ed bd ba 2f 1e 3e
       0.06064838 0.083733924 -0.11611968 0.15447894
000070 27 14 cd bd 49 0c b7 be 72 1e 5d 3e fd 40 de 3c
       -0.100136094 -0.3575156 0.21593645 0.027130598
000080 1b d9 22 3e 3a 69 34 be 8e f5 15 3e 74 b6 c2 be
       0.15903132 -0.17618266 0.14644453 -0.38029826
000090 fc bd b3 3c d3 a5 ea 3d 97 75 38 3e 95 9b 01 be
       0.021941178 0.1145741 0.18013607 -0.12657006
0000a0 d1 26 99 3d 50 b4 a0 be a0 c4 71 bd 45 f3 9b 3e
       0.07478107 -0.31387568 -0.059025407 0.30459037
0000b0 43 72 ff bd e1 60 84 be c3 08 82 be f7 d1 21 3d
       -0.124729656 -0.25855163 -0.2539731 0.03950688
0000c0 4a df 83 3e 5b 1c 13 be fb d3 1f 3d 56 8b 29 bc
       0.25756294 -0.14366286 0.03902052 -0.010348162
0000d0 22 38 b4 be 14 32 09 bf f3 ab 32 3e 47 93 be be
       -0.35199076 -0.5359204 0.17448406 -0.3722174
0000e0 91 5a 4d 3d eb 30 05 3e 62 30 48 be 11 dd a8 bd
       0.0501352 0.13006942 -0.19549707 -0.0824529
0000f0 52 f3 a4 bc 76 98 32 bd c3 34 2a bd 1f 9c c2 3e
       -0.020135555 -0.04360243 -0.041554224 0.38009736
000100 0c e4 5c 3d 44 30 7a 3e 0a c8 5b 3e 99 99 e5 3e
       0.05392842 0.24432474 0.21463028 0.44843748
000110 cc 75 35 3e 94 f0 83 3c 74 0b 1f 3d 11 63 0d 3e
       0.17720717 0.016105928 0.038829282 0.13807322
000120 19 fa 5a bb bd ea 74 3e 53 b6 ab be 9a a7 10 3f
       -0.003341323 0.2391767 -0.3353754 0.5650574
000130 36 0c 11 bd 42 c4 aa be 7e a1 87 3d ff f6 55 be
       -0.035412036 -0.33352858 0.06622599 -0.20895003
000140 69 57 16 3f 72 0a 00 3d 27 87 2d 3e 91 3c 8f be
       0.5872713 0.03125996 0.16946088 -0.27975896
000150 87 ee 4c bd 9e 42 89 be c2 8a 93 be 22 a8 f2 3e
       -0.050032165 -0.26808637 -0.288168 0.473939
000160 01 b8 00 bf 20 9c 66 3e 5d 6e 83 3c f4 b3 1c be
       -0.5028077 0.22520494 0.016043836 -0.15303022
000170 03 c9 94 be ce 61 6c 3e 4f 15 98 3e 5b 92 3e 3e
       -0.2905961 0.23084185 0.29703757 0.18610518
000180 53 11 43 3e 06 a5 15 3d bc f9 4d bd 3e 80 8a be
       0.19049577 0.03653433 -0.050286993 -0.27050966
000190 10 2e 38 3e 1f cc 52 be 68 e9 9c be ed c0 23 3d
       0.17986321 -0.20585679 -0.30646825 0.03997891
0001a0 b6 39 42 bd b2 4e aa 3d 8d 0f af be f8 74 8e 3d
       -0.04741832 0.08315791 -0.34191552 0.06955904
0001b0 43 3e 72 bd 9f c4 04 bf 77 4e b0 3c f9 30 1c 3e
       -0.05914141 -0.5186252 0.02152179 0.15253057
0001c0 08 69 10 bf f3 e9 50 3e a0 e1 d9 3c 14 71 40 be
       -0.56410265 0.20401745 0.026596844 -0.18793136
0001d0 a8 c8 95 3d 14 fe 4f bb 8f c5 56 be 91 0a d9 3e
       0.07313663 -0.0031737136 -0.209738 0.42390874
0001e0 bd 0a 50 3d 75 ec f6 3d 06 be 27 bc 08 04 76 bd
       0.05079149 0.12056819 -0.010238176 -0.06006244
0001f0 75 35 81 be c1 6e cb be 88 a6 76 3e 43 36 4e be
       -0.25236097 -0.39732936 0.24086964 -0.20137887
000200 b3 05 39 3e 9f e3 a0 3e ae 52 b7 3d 57 6e 05 3e
       0.1806858 0.3142366 0.08951317 0.13030373
000210 21 19 72 3e 48 04 d3 bc 26 84 4c 3e 91 99 53 3e
       0.23642398 -0.025758877 0.19972286 0.2066405
000220 66 36 28 bd 1f 8e 98 bd 38 63 a3 bc dc 98 a3 be
       -0.041067503 -0.074489824 -0.019944772 -0.3195256
000230 0c 70 28 3e fc 27 18 3e 09 da 18 be 32 71 30 be
       0.16448992 0.14859003 -0.14926924 -0.1723068
000240 08 c4 1c 3e 13 ec 71 3e 0d cc 87 3d d1 53 8f 3e
       0.15309155 0.23625211 0.066307165 0.27993634
000250 ab 3e 52 3d 2a e9 e8 bc 6a 69 1e 3e a9 06 25 be
       0.051329296 -0.028431494 0.154699 -0.16115822
000260 be ef 6f be 56 9b a9 3d 57 d3 12 be cb e5 22 3e
       -0.23431298 0.08281581 -0.14338432 0.15907972
000270 be f1 06 be 7a f4 d9 be af 71 b5 3e 19 08 2c bd
       -0.13178155 -0.42569333 0.35438296 -0.04199991
000280 b8 8a 43 3e 64 b6 c3 bd ef 72 72 3e c7 bf 0e bd
       0.19095886 -0.095562726 0.23676656 -0.034850862
000290 8a 56 3b be ec b2 bf 3e 27 e5 28 3d 44 c7 7c 3b
       -0.18294731 0.37441194 0.04123416 0.003857092
0002a0 2f 94 9e 3d c3 bb 2f be 68 f4 6b 3e d8 68 66 bc
       0.077431075 -0.17161469 0.23042452 -0.014063083
0002b0 42 62 11 bd 6f 85 58 bd b4 d4 d8 3c 64 ce f5 3d
       -0.035494097 -0.052861627 0.026468612 0.120022565
0002c0 56 2b 83 be e0 51 da bd ba f3 01 3e db c6 ea bc
       -0.25619 -0.10660148 0.1269063 -0.028659275
0002d0 98 0c f5 ba 00 9b 85 3e d9 33 39 3e 8b c8 18 be
       -0.001869577 0.26094818 0.18086185 -0.14920251
0002e0 c9 2f 16 be ca 53 b0 be e1 f0 b5 3c 79 16 98 bd
       -0.14666666 -0.34438926 0.022209587 -0.07426161
0002f0 f7 54 29 3e 0d e0 83 be ce c3 67 3e 66 ff 89 3e
       0.16536318 -0.25756875 0.22633287 0.26952666
000300 fb 6d 3c be d6 24 a5 3e e7 52 64 3e 0e 9b a2 bd
       -0.18401329 0.32254666 0.2229725 -0.079397306
000310 af 3e c7 bc e5 4a 8c bc 47 7d e8 bd 5f 97 9b 3e
       -0.024321882 -0.017125556 -0.1135202 0.30388924
000320 07 b4 1e 3d bf b5 97 3e 55 c6 0f 3f 30 b6 48 be
       0.038745906 0.2963085 0.56162006 -0.19600749
000330 bd 88 0f be 69 04 b4 3d e4 af a5 be f7 07 cb 3d
       -0.14017005 0.08789904 -0.32360756 0.099136285
000340 24 53 3d bd 7a 87 2d bd ad f4 0a bd e7 27 1d 3e
       -0.046221867 -0.04236553 -0.033924747 0.15347253
000350 bd 45 07 be ee e7 86 3e 13 48 d4 3c 7c 66 bb 3d
       -0.13210197 0.26348823 0.025913274 0.09150407
000360 f2 00 f8 bd ce 18 9c 3e a0 b2 7f 3e b1 44 d2 3d
       -0.12109555 0.30487674 0.24970484 0.10267008
000370 7d 0a 71 be 43 0e be 3c a9 05 2b 3e 63 39 b7 3e
       -0.23539157 0.02320016 0.16701378 0.3578597
000380 fe c9 13 be ed d4 4f 3e 99 59 03 be 91 46 a9 3c
       -0.14432523 0.20296068 -0.12827148 0.020663531
000390 20 7b 96 3e b9 b2 b5 3d e9 f8 9d 3e 57 70 b9 3d
       0.29390812 0.08871979 0.30853966 0.0905463
0003a0 b6 8c 01 bc bd 81 90 3c b6 89 73 bd 6c a3 01 be
       -0.007907083 0.017639989 -0.059457503 -0.12659997
0003b0 d3 e1 82 3e cc e4 58 ba ad 1e 18 be 24 94 9c 3c
       0.25562915 -0.00082738395 -0.14855452 0.019113608
0003c0 e6 44 c0 3d 65 bf 03 be 6f f0 79 bc f2 1d 8e be
       0.09388141 -0.1286598 -0.015255078 -0.2775722
0003d0 23 ab c3 bc c4 0b a3 bd a9 f2 98 3b 76 0f 22 3e
       -0.023885315 -0.079612285 0.004667599 0.1582621
0003e0 ca d5 a0 be cb 3d c1 3c 56 30 18 3e 58 fc 86 3d
       -0.31413108 0.023589035 0.14862189 0.065910995
0003f0 5f af ee bd 83 cd d2 3e 7b 55 34 be 92 1f dd be
       -0.11654543 0.41172418 -0.17610733 -0.4318815

bias f4 [8]
000000 bf 93 4d bb a4 44 cc bd b7 4a ca 3b de 88 dd bd
       -0.003136858 -0.0997403 0.0061734575 -0.10817121
000010 3e 1d 66 bd 0c 49 f0 bd fe 0d 29 be 69 de 5e 3d
       -0.05618023 -0.117326826 -0.16509244 0.054411326

weight f4 [4, 1, 5, 5]
000000 d9 1a 5e 3e 1d 91 f2 be ec 1c ff bd c3 8f 21 be
       0.21689929 -0.47376338 -0.12456688 -0.15777497
000010 cc ce 0a 3e a6 db 07 be 97 dd c9 be 23 11 37 be
       0.13555449 -0.13267383 -0.39426872 -0.17877631
000020 83 2c ec 3d 56 95 9c 3e ef c6 2d 3e 1c 88 8f be
       0.115319274 0.30582684 0.16970418 -0.2803353
000030 55 3e 14 bc f0 4c b2 3b 38 24 f2 3c 8a 83 f7 3c
       -0.009048064 0.0054413006 0.029558286 0.03021409
000040 69 86 3e bf 72 97 cb 38 5d 72 5e be 32 3d 6c 3e
       -0.74423844 9.708003e-05 -0.21723314 0.23070219
000050 2b f3 71 3e 3e 58 42 3c c1 93 2d be 0b 1b 78 3e
       0.23627917 0.011861859 -0.16950895 0.24229066
000060 be d1 9a 3e a2 b7 76 3e 90 c3 50 bc 70 e3 f9 3c
       0.30238146 0.24093488 -0.012741938 0.030503958
000070 c9 7c 18 bf 45 e0 60 3d c6 b7 6f 3c a9 4f 7d 3e
       -0.5956541 0.05490138 0.014631217 0.24737419
000080 89 84 e5 bc e2 b0 5d bd b2 f2 83 3e 83 d7 84 bd
       -0.0280173 -0.054123767 0.257711 -0.06486418
000090 d1 86 79 3e e3 9f a5 3d 13 87 47 bd e7 85 57 3e
       0.24367835 0.080871366 -0.0487128 0.21047173
0000a0 f4 f2 33 bd 1e 9b dc bd c9 2d 6f be 18 6e 2e be
       -0.04393287 -0.10771774 -0.2335731 -0.17034185
0000b0 d9 b3 0e be cd 83 6b 3e e8 60 5c 3e e9 8d e3 be
       -0.13935794 0.22999497 0.21521342 -0.44444206
0000c0 a3 8f 1a 3e ca e6 e1 be 66 45 58 be be bd 05 bd
       0.15093856 -0.4412139 -0.21120223 -0.032651655
0000d0 06 10 81 3e 8a 50 d0 3d 48 74 af bd b0 fc 9d be
       0.25207537 0.101716116 -0.08567101 -0.30856848
0000e0 47 b4 0b bf 38 4c e8 3d b9 24 8f 3e 72 bb 23 bf
       -0.54571956 0.113426626 0.27957705 -0.63957894
0000f0 17 89 0d be 80 5f 8e 3e 61 72 99 be 2b a6 27 3e
       -0.13821827 0.27807236 -0.29970077 0.16371982
000100 65 fd 86 be f3 48 be bd 56 cd 39 3e 24 97 26 3e
       -0.263652 -0.09291258 0.18144736 0.16268593
000110 7e 1f 00 bf 45 32 0c 3d b7 9d 35 be f3 96 07 bf
       -0.50048053 0.03422763 -0.17735945 -0.52964705
000120 77 88 d8 be c1 fa 6f 3e d7 81 f0 3d f4 ce 92 3e
       -0.42291614 0.23435499 0.11743515 0.28673518
000130 d4 85 e7 bd 19 9a 20 3e dc 1e 0c 3e 6a a0 9a be
       -0.113048226 0.15683784 0.13683647 -0.3020051
000140 aa af a1 3e 8e bf ef bd c1 93 2a 3e fd 96 41 3e
       0.31579334 -0.11706458 0.16657926 0.18905254
000150 0a 7f fe bd 0f 13 b5 bc 03 48 01 bc c0 89 23 3e
       -0.124265745 -0.022103814 -0.007890704 0.15970516
000160 ad 61 84 3e 2b bb 0b bf 92 df 2a 3e 61 35 63 3e
       0.2585577 -0.5458247 0.16686848 0.22188331
000170 ef 24 02 3e f1 20 28 3e 3c 71 0d be f3 6b 65 bd
       0.12709402 0.16418816 -0.13812727 -0.05601115
000180 dc 2b 59 3e 3f 2c ab 3d c7 9d 1d 3e 39 e6 5c 3d
       0.21208137 0.08358049 0.15392219 0.053930495

bias f4 [4]
000000 45 36 3f bd 64 e6 8e bd 59 e5 36 be 98 fa 84 be
       -0.046682615 -0.06977537 -0.17860927 -0.25972438

weight f4 [8, 4, 3, 3]
000000 72 17 44 bd cd f7 c1 bd 38 be 40 3e 67 e7 e0 3c
       -0.04787392 -0.094710924 0.18822563 0.027454091
000010 ce 57 13 be 78 f5 31 bd 7c bb d3 3d d8 e6 9b bd
       -0.14388964 -0.043446988 0.10338494 -0.07612389
000020 7d 5d 6a bd 1b 70 3d bd e2 d3 14 3e 9a f4 65 bb
       -0.057218064 -0.04624949 0.14533952 -0.003508842
000030 97 34 76 bb 78 58 4e 3d f0 d6 04 bd 95 58 ab 3d
       -0.0037567967 0.05037734 -0.032431543 0.08366505
000040 6a a1 26 3e bd 52 20 be 81 17 93 3e d1 b2 3b 3e
       0.16272512 -0.15656562 0.2872887 0.18329932
000050 4a bc 09 3e 6a 26 02 3e 5f e2 b6 bd 1b 14 f7 3d
       0.13450733 0.12709966 -0.089298956 0.12064382
000060 fb dc de 3c 4e 83 0c 3d 1f 7d 89 3d 5d 22 24 bd
       0.027204981 0.03430491 0.06713318 -0.040071834
000070 27 91 5d bc 98 42 b2 bd a8 8b bb 3d f8 50 b9 3d
       -0.013523377 -0.08704108 0.09157497 0.09048647
000080 df 83 4f 3e cc bc 94 3d 59 5b 19 3e a1 7f 94 3d
       0.20265149 0.07262573 0.14976253 0.07250906
000090 a6 fa 4c 3e 19 3b ea 3d 46 75 d5 bd 68 af 84 bd
       0.2001749 0.11437053 -0.10422759 -0.064787686
0000a0 3b c3 86 3d 22 09 98 ba 8e 60 6b be aa 08 00 bd
       0.06580206 -0.0011599401 -0.22986051 -0.031258263
0000b0 7e 6b a8 be 37 bb 49 be 25 78 0a 3d fe 52 8a 3d
       -0.3289451 -0.19700323 0.033805985 0.06754111
0000c0 08 83 82 bd 8a db 1c 3d 1a 8c 5d bd d5 02 42 3e
       -0.063726485 0.038295306 -0.05408869 0.18946393
0000d0 db ea dd bd 15 12 f3 bb 05 38 39 ba e5 48 5c be
       -0.10835811 -0.007417927 -0.00070655375 -0.21512182
0000e0 1d 4b 48 bb 25 d1 cb bd 6c 00 4a be d7 70 5a 3e
       -0.003056235 -0.099520005 -0.19726723 0.21332107
0000f0 eb 0e 26 bf 08 94 2d be 26 1a 8d be 4c 45 6d 3e
       -0.64866513 -0.16951 -0.27559012 0.23170966
000100 c9 75 82 3e d4 08 98 3d 90 f9 9f 3e 77 f5 2a 3e
       0.25480488 0.07423559 0.3124509 0.166952
000110 e7 4f c9 bd 27 1a 73 3e 4b e8 32 be 18 15 20 be
       -0.09829693 0.23740445 -0.17471425 -0.15633047
000120 f1 26 67 be 52 75 c5 bc 0d 30 51 3d d4 b3 e3 bd
       -0.22573449 -0.024103794 0.051071215 -0.11118284
000130 5c c4 fd 3c 32 b5 6a 3e 88 67 78 be 11 bf 3f be
       0.03097742 0.22920683 -0.24258244 -0.1872523
000140 f8 0c 59 3e a8 b9 5b 3d dc b8 f8 bd ef d6 4b 3e
       0.21196353 0.053643852 -0.12144634 0.1990621
000150 11 1d 43 bc 50 f0 47 3e 97 47 d7 3d 15 f0 86 be
       -0.011908785 0.19525266 0.105117016 -0.26355043
000160 fe 20 cc 3d b0 52 fc 3d fe e5 41 3c 49 8f 3c bd
       0.0996723 0.12320459 0.01183462 -0.046035085
000170 41 ed 36 3e fe d8 2d be 53 0b c2 bd 02 91 3f 3e
       0.17863943 -0.16977307 -0.09474816 0.1870766
000180 dc e6 b6 be 53 4e 55 3b 9f bf c6 bc 5d aa 95 bd
       -0.35723007 0.0032547906 -0.024261294 -0.07307885
000190 fb 75 4e be fa 70 ad 3c 85 4d 51 be 7e af af be
       -0.20162193 0.021172035 -0.20439728 -0.34313577
0001a0 16 7f f7 3b 0f fd c1 bb b1 22 bd be 03 a8 1e 3e
       0.0075529916 -0.0059200595 -0.3694053 0.15493779
0001b0 08 53 14 3e e1 a0 88 be a5 63 8e bd 72 13 30 3e
       0.14484799 -0.2668524 -0.069525994 0.17194918
0001c0 a4 db 2f be a3 bf 34 3d 1b 86 c6 3d eb 65 29 be
       -0.1717363 0.04412807 0.09693547 -0.16542785
0001d0 c3 69 cd 3b 81 c6 58 3e 12 6d a7 3c e7 b7 3d be
       0.0062687113 0.21169473 0.020437751 -0.18527184
0001e0 1e 62 4d bd 93 66 fb 3d a0 c7 34 bd 2d 43 04 be
       -0.0501424 0.12275424 -0.04413569 -0.1291625
0001f0 06 de cb 3c 53 32 92 3d c4 af 09 be 39 a1 5e 3e
       0.024886142 0.07138505 -0.13445956 0.21741189
000200 5e 70 82 be 49 69 8a 3d f6 a6 c2 3d 86 d4 c4 be
       -0.25476354 0.06758363 0.095045015 -0.38443393
000210 d4 6d ad bd df 4c 03 3d 03 ea 8d bd 2f 71 82 3e
       -0.08468214 0.032055732 -0.069294 0.25476977
000220 b9 8f 24 3b 24 3e 1a 3e f1 0f c1 bd 65 22 4d 3e
       0.002511008 0.15062767 -0.09426869 0.20032652
000230 c1 a8 49 3c 8c cb 91 bd 0a af fc 3d c4 ca ae 3d
       0.0123083005 -0.071189016 0.123380736 0.08534768
000240 2e fc b9 be 07 3e 00 be 6c 73 34 3e 10 b5 13 be
       -0.3632521 -0.12523662 0.17622155 -0.14424539
000250 93 1e 1f bc a1 50 24 3e 58 33 ef 3d 4a c0 6c be
       -0.009711879 0.16046382 0.11679715 -0.23120227
000260 0a 0e d4 3d 88 b8 7c bc d1 ea f8 bd b9 2c 37 3d
       0.1035424 -0.015424855 -0.12154163 0.044720385
000270 32 47 c2 3d ac c7 26 be 87 7e f9 3d 31 ea 3e be
       0.09486236 -0.16287106 0.12182336 -0.18644024
000280 e0 99 85 be b0 4f 44 3e a4 2b 3c 3c 63 46 6b be
       -0.2609396 0.19171023 0.011485014 -0.22976069
000290 30 ce e7 3d 2e cd 34 be 53 ff c1 bd 92 21 2e bd
       0.11318624 -0.17656395 -0.09472527 -0.042512484
0002a0 ae 6e 38 3c 40 b2 51 3e e4 91 3f bd 48 bd 21 3e
       0.011256857 0.20478153 -0.04676999 0.15794861
0002b0 8f 5e 30 be b9 ae 97 ba 62 24 02 3e b7 f7 b8 bc
       -0.17223571 -0.0011572457 0.12709191 -0.022579057
0002c0 ed 59 72 bd fd 78 c6 bd 64 ed 00 3d a5 e7 1d 3e
       -0.05916779 -0.096910454 0.031476393 0.15420397
0002d0 8b 06 b1 bd 11 30 7e 3c f6 53 c3 3d fe 04 93 bd
       -0.08643826 0.01551439 0.09537499 -0.071786866
0002e0 3d 5b e5 3c 39 ae 21 bd 3f 86 57 be 35 5f e4 3d
       0.027997607 -0.039472792 -0.21047305 0.11150972
0002f0 04 9a 98 3c f5 7d cd bc f5 46 a9 bc 11 2b ff 3d
       0.018628128 -0.025084475 -0.020663718 0.12459386
000300 36 e2 ab 3c 1e b6 06 be 35 a4 84 3d 0f 29 de bd
       0.02098189 -0.1315541 0.064766325 -0.10847675
000310 4d 0c 20 be 11 01 cf bd 50 d3 5c bb 06 78 13 3c
       -0.15629692 -0.10107625 -0.0033695288 0.009000784
000320 8d af eb bb e3 14 41 3e a9 be 72 3e a8 97 d4 3c
       -0.007192558 0.18855624 0.23705544 0.025951222
000330 a6 d4 1f 3e 97 79 6e 3e 60 8d 15 be 4c e6 88 bd
       0.15608463 0.2328857 -0.14604712 -0.06684551
000340 f8 83 bc 3e 9e 73 3d be 89 68 0e bf 04 5e 83 3e
       0.36819434 -0.18501136 -0.5562826 0.25657666
000350 ec 89 0c bd 06 0b a5 bd be e1 6d 3e 49 90 54 be
       -0.03431122 -0.08058743 0.23230645 -0.20758165
000360 9c b7 79 bd 90 3d 5b be 65 0d bd be f4 62 df bd
       -0.06096612 -0.21410203 -0.36924282 -0.10907546
000370 59 4e 90 bd 20 0d 2d be e6 54 46 3e 8a 8b f0 3d
       -0.07046194 -0.16899538 0.19368324 0.11745365
000380 c5 85 90 3d a2 dc 43 be 0b ef 4b 3d bb 8a 22 3c
       0.070567645 -0.19127133 0.049788516 0.009920771
000390 c7 78 2c 3c 23 c0 c4 3d 44 a2 3f bd 9c 7f f1 bc
       0.010526842 0.0960696 -0.046785608 -0.029479794
0003a0 14 32 47 3d 09 82 40 3c 05 3e 51 3e b1 c0 3e 3d
       0.048631743 0.011749753 0.20433815 0.046570484
0003b0 72 59 13 3e d1 b3 d4 3d 56 c1 d7 3c 8b d8 36 bf
       0.1438959 0.1038586 0.026337307 -0.7142417
0003c0 2f 6d 86 bd 43 45 cf 3d 83 cd 9b 3e 4b 9a ec 3d
       -0.06563794 0.101206325 0.3043023 0.115528665
0003d0 01 f3 9a bd fe 0d 03 bc 00 f8 6c 3e 91 45 51 3e
       -0.075658806 -0.0079989415 0.2314148 0.20436694
0003e0 45 88 3a be 52 13 1a be aa 07 6b be 60 c6 b0 be
       -0.18216045 -0.15046433 -0.22952142 -0.34526348
0003f0 c3 aa c2 3c 49 83 88 3c fc b9 43 be 73 b6 9f 3d
       0.023763066 0.016664164 -0.19113916 0.07798471

bias f4 [8]
000000 11 8a 11 be 9f ab d4 bc b1 99 30 bc e7 2b 2e be
       -0.14212824 -0.025960742 -0.01077883 -0.17008935
000010 f6 09 44 bd d9 2d 85 bd fd 38 38 3d 78 d2 1a be
       -0.047861062 -0.06502885 0.044976223 -0.1511935

weight f4 [32, 16, 5, 5]
000000 ec 63 2b bc 99 4d 93 bc 1d 44 aa 3d 5e af 89 3d
       -0.010460835 -0.017981337 0.08313773 0.06722902
000010 e0 64 14 38 81 b9 97 3c 5b d0 36 3d e0 d2 14 3d
       3.5379897e-05 0.018521072 0.044632297 0.03633392
000020 0a dc f0 3a 3c 49 92 3d 3c 31 30 3e 0a f5 04 3e
       0.0018376124 0.071428746 0.17206281 0.129841
000030 ed df b0 bd 62 e6 4a 3d 63 03 77 3d 81 d3 0c 3e
       -0.086364605 0.049536116 0.060305964 0.13752557
000040 ea 3c 49 3d d3 55 0a 3d 5a 8b 31 3c a9 45 0e bd
       0.049130358 0.033773255 0.010836447 -0.0347344
000050 b5 80 74 3d c1 6d 83 bc 08 cc 45 3d 2b 15 ad 3d
       0.059693057 -0.016043546 0.048290282 0.08451303
000060 7d f6 4a 3e af 30 0c 3e 34 ae ba 3c 7d aa 94 3b
       0.1982059 0.13690446 0.022788145 0.0045369253
000070 e3 ce e3 bd 85 07 e1 bd 6e 99 05 3e a7 4c 74 bc
       -0.11123445 -0.10987762 0.1304681 -0.0149108535
000080 3a f1 bd bd d6 d2 a3 bd 19 10 02 be 92 ec 72 3d
       -0.09274526 -0.07999198 -0.12701453 0.059307642
000090 83 e2 0b be 49 3c a4 bd 17 bc ba bd 71 40 17 be
       -0.13660626 -0.08019311 -0.091179065 -0.14770676
0000a0 bc 9d a7 3d 16 6f 1a be 06 82 0b bb e7 a4 9a bd
       0.08184382 -0.15081438 -0.0021287217 -0.07550984
0000b0 0b 3c 1c be b4 7e 88 3d 6b 0c 52 be 92 da 7f bd
       -0.1525728 0.06664792 -0.2051255 -0.062464304
0000c0 a2 4c 8c bd cf 36 37 be e6 44 eb 3b 3e 70 83 bd
       -0.06850554 -0.17892002 0.007179844 -0.06417893
0000d0 03 4a 1c be 74 c3 ca bd 49 0f 59 3c f3 c2 1b bd
       -0.15262608 -0.09900561 0.013248273 -0.038027715
0000e0 90 22 ad 3d 07 de 14 bd 91 47 bf bc 96 ae f0 bc
       0.08453858 -0.036344554 -0.023349555 -0.029380124
0000f0 64 55 40 bc 19 01 88 bd 5b 39 8b bd d1 57 82 bd
       -0.011739109 -0.06640834 -0.06798049 -0.06364406
000100 1c cc fb b8 d6 47 1c 3e c9 d8 e2 bd e8 5c 8f bd
       -0.00012006631 0.15261778 -0.11076505 -0.07000142
000110 da 16 e4 bc 14 63 82 3d 97 db 80 bd 07 17 b6 bd
       -0.027842928 0.06366554 -0.062918834 -0.08891111
000120 20 e2 15 bd fd b8 0c bd 14 92 ae 3d df 18 f6 bd
       -0.036592603 -0.034356106 0.08523956 -0.120164625
000130 e1 97 99 3d 91 92 f6 3d d7 13 13 3e ab c5 17 3e
       0.07499672 0.12039674 0.14363037 0.14821498
000140 53 8c 9e 3d 2c 00 0e 3e 17 06 0a 3e e4 0d ee 3d
       0.077416085 0.13867253 0.13478886 0.11623743
000150 fa ed 09 3e 3e ff a6 3b c4 91 ba bc 7b 16 95 bc
       0.13469687 0.005096345 -0.022774585 -0.018199196
000160 05 0b 31 bd 30 c5 53 3c b1 21 ef 3c 69 aa 49 3d
       -0.0432234 0.012925431 0.02919087 0.04923478
000170 f5 94 fc bb c0 45 a9 bd f9 39 cc 3d c6 d5 1b 3e
       -0.0077081867 -0.08265257 0.09971995 0.15218267
000180 9c f2 0c bd 4a 17 70 3b b0 36 7d bd f8 55 a9 3e
       -0.034411058 0.0036634975 -0.061819732 0.330734
000190 0f 2b f4 3d 2f 83 ee bc fa 73 e9 3d 15 da 46 3d
       0.11922275 -0.029115288 0.11399074 0.048547823
0001a0 4b c0 4b 3d 61 5a b0 3b 57 9d 54 be 4e c2 04 bc
       0.04974393 0.0053818678 -0.20763145 -0.0081029665
0001b0 5c 30 b2 bd 04 14 a1 bc 3b 78 07 3e b5 e0 00 be
       -0.0870063 -0.019662865 0.13229458 -0.12585719
0001c0 23 6c 82 3c 26 9e 8d bd 49 48 7f 3d 53 2a 25 3e
       0.015920704 -0.0691493 0.062324796 0.16129427
0001d0 47 2f 0b be e5 f6 ab 3c a3 3b 42 3c 7f a8 18 3e
       -0.13592254 0.020991752 0.011855039 0.14908026
0001e0 9c a4 4a 3e 14 42 b2 bd 9b 74 dd 3d 96 13 96 3c
       0.19789356 -0.0870401 0.10813256 0.018319886
0001f0 df 4e 5c 3e c2 ab 58 3e a8 50 22 3e 44 28 2b 3e
       0.21514462 0.2115927 0.1585108 0.16714579
000200 72 94 d1 3d f8 9d c0 3d 9a 64 27 3e 65 ea 44 3d
       0.10233392 0.0940513 0.1634697 0.0480751
000210 88 b5 8f 3d cf 0e 18 3d 3e 0b 35 bc 70 6c 02 3e
       0.07017046 0.037123498 -0.011050044 0.12736678
000220 b4 dc 48 3d cf d5 80 3d 0a fa 48 bd 06 c0 f8 bd
       0.049038604 0.06290781 -0.04906658 -0.121460006
000230 67 f7 16 3e 28 b6 63 3c 24 96 be bd b8 8f 66 be
       0.14742814 0.01389841 -0.09305981 -0.22515762
000240 91 fe 76 be 86 86 8f 3e b3 9f b5 3c ec 06 46 be
       -0.24120547 0.2803232 0.022170877 -0.19338578
000250 bb 84 69 be be 52 5a be f0 a2 d1 ba 74 0f 49 bd
       -0.22804539 -0.21320626 -0.0015993994 -0.049087003
000260 c4 40 22 3d dd aa 3f bd 78 f4 15 3e b0 34 97 3e
       0.039612547 -0.046793807 0.14644039 0.29532385
000270 93 94 0b 3e 01 d0 a6 3d cd 4e d7 bc 5b 92 1a 3e
       0.13630895 0.08145142 -0.026282692 0.15094893
000280 01 9c 8f 3e e1 bb 04 3d 03 03 1a 3a 8d 54 07 3e
       0.2804871 0.032405738 0.00058750826 0.13215847
000290 bb 3f 5e 3e 11 fa b7 3d ee 1f dd bd 5a a9 f1 bd
       0.21703999 0.08983243 -0.10797106 -0.11799879
0002a0 44 97 0d bd f2 2c 22 3e 07 45 0e 3d c3 18 ac bd
       -0.034568086 0.15837458 0.0347338 -0.084031604
0002b0 5d 45 2e be 86 58 fe bd e7 d8 55 3e 10 ba 7e 3c
       -0.17018647 -0.12419228 0.20883523 0.01554729
0002c0 fb 76 d3 bd fa 11 f1 bb 9d dd 0b 3e a6 a0 99 3d
       -0.10325428 -0.0073568793 0.13658758 0.075013444
0002d0 41 12 04 bd e2 b8 28 3a b3 bf c6 3d 43 6d c0 3d
       -0.03224397 0.0006436241 0.097045325 0.0939584
0002e0 a2 e6 7d 3d 78 8f 51 3d 72 57 5d 3d 12 d6 01 bd
       0.061987527 0.051162213 0.054038472 -0.031698294
0002f0 dd 85 e8 3d 32 60 b7 b9 50 c9 b3 3c 0f 59 72 bd
       0.113536574 -0.0003497615 0.02194658 -0.059166964
000300 45 d9 eb bc d3 18 09 3d 94 12 7c bb e8 fc 1d 3d
       -0.028790126 0.03347094 -0.0038463222 0.03857127
000310 6e 5b 77 bd d3 60 bf bd 77 77 58 3d c1 4d c3 3c
       -0.06038993 -0.0934464 0.052848306 0.023840787
000320 3d 17 d6 3d 9a 97 b9 3c e6 d0 63 bc c0 3d a1 3d
       0.10453651 0.022655297 -0.013904786 0.07873106
000330 d2 b3 de 3d bd 90 a6 3c a9 c5 8f bd cd 5f 16 3d
       0.10874142 0.020332688 -0.070201226 0.036712456
000340 e1 59 af 3d ac e5 c0 3d 53 eb bc 3c c2 83 63 bd
       0.08562065 0.094188064 0.02306143 -0.055545576
000350 5d 8a 3b bb 1e 2f 5c 3d 42 47 3a bd 10 15 8a 3d
       -0.0028616406 0.053755872 -0.045478113 0.067422986
000360 3e 0d 4a bc 19 14 99 3d c6 b2 a6 3d 50 16 0f 3d
       -0.012332259 0.074745364 0.08139567 0.03493339
000370 61 79 d8 3c 81 62 81 3d 7d 1c 80 3b d8 87 76 ba
       0.026425065 0.06317616 0.003909646 -0.00094043976
000380 ff 7c b4 3c db 68 c2 3d 12 d3 94 bd 0a 4c fc bc
       0.022032259 0.09492656 -0.07266821 -0.030797977
000390 61 29 b6 3d b5 86 5e bd 29 ba ab 3d f5 33 c1 bd
       0.08894611 -0.054327685 0.083851166 -0.09433738
0003a0 7e 0f 5c 3b 77 49 29 3d 7a c2 87 bd f7 84 e0 3d
       0.003357857 0.041329827 -0.0662889 0.10962861
0003b0 1b f1 69 bd f6 80 d6 bd 0a 83 26 3d eb 43 d3 bd
       -0.0571147 -0.10473816 0.040652312 -0.10315689
0003c0 b9 46 1d 3e 5b be ab bd 88 70 e9 bc ee f2 4e 3d
       0.1535901 -0.08385917 -0.028496042 0.050524645
0003d0 82 e6 a1 bd 43 04 7a 3d d0 7f 3f bd 69 33 09 3d
       -0.07905294 0.06103922 -0.04675275 0.033496294
0003e0 ce a6 e4 3d f4 11 51 bd 1a 3b 5b bd a2 dc 1e bb
       0.11164628 -0.051042512 -0.05352316 -0.0024240394
0003f0 c8 d1 0d 3d 75 14 81 bd 87 ad bd bd 8a 97 a9 bd
       0.03462389 -0.0630273 -0.09261613 -0.08280857

bias f4 [32]
000000 73 4a c7 bc 21 48 a9 bc df f7 7f 3d 19 52 02 bd
       -0.024327492 -0.020664277 0.062492248 -0.031816576
000010 51 3d 04 bd 40 46 1d 3d d7 f9 85 3c d1 e7 a4 bd
       -0.03228504 0.038397074 0.016354484 -0.08052028
000020 d7 e7 34 3c 38 b8 3d bc 30 1f d9 bc 52 13 f2 bd
       0.011041603 -0.011579566 -0.02650413 -0.11820091
000030 a8 78 32 bc d4 33 9d bc 76 bf 52 bd 8a e8 38 bd
       -0.0108930245 -0.019189753 -0.051452123 -0.04514364
000040 d6 a0 da 3b 7a a2 50 bc 09 bc b1 bd eb 2e 03 bc
       0.006672005 -0.01273405 -0.08678443 -0.008006792
000050 95 0a e9 3b e0 31 28 bd a4 1c 28 bd a5 68 48 bd
       0.007111857 -0.04106319 -0.04104294 -0.04892792
000060 91 aa 5e bc aa 63 67 bd 54 f2 4e be e6 99 20 3c
       -0.013590471 -0.05649153 -0.20209628 0.009802317
000070 9e 8f 47 bd c8 53 c2 bc 4c c4 a5 bd b5 f0 46 3d
       -0.04872095 -0.02372159 -0.08094081 0.0485694

weight f4 [16, 32, 3, 3]
000000 f0 8d 4e 3c 51 fe 38 3c 09 d1 6e bd 06 b5 c2 bd
       0.012607083 0.0112911025 -0.05830482 -0.09507184
000010 51 19 28 bd cc 59 07 be 12 4a 12 be 3d 88 a7 bd
       -0.04103977 -0.13217849 -0.14286068 -0.08180282
000020 59 88 87 bd 2a 9c 61 3c 28 47 7e bb ef 53 75 bd
       -0.06617803 0.013770143 -0.0038799737 -0.0598945
000030 82 91 5b bc 2e 52 2b 3c 90 f8 62 bd c0 67 39 bd
       -0.013401391 0.010456605 -0.05541283 -0.04526496
000040 dc 9a 82 bb c8 85 86 bd 4c 03 98 3e f4 dd 2f 3f
       -0.003985746 -0.065684855 0.29690015 0.6869805
000050 3a e9 ba bd 90 9c 31 3e ee 43 96 3e fc 97 e1 3e
       -0.09126516 0.1734488 0.293487 0.44061267
000060 db 62 47 3e e0 48 81 3e 14 69 1a be 8f 90 2b 3c
       0.19471304 0.25250912 -0.15079147 0.010471477
000070 5e 61 30 bd 6d 07 10 3d a8 80 dd 3c d7 e6 e8 3b
       -0.043061607 0.03516333 0.027038887 0.0071075964
000080 de 57 86 bb af 6f 22 3d d6 cf ae bc 1f fb 03 3c
       -0.00409983 0.03965729 -0.021339338 0.008055477
000090 ec fa 2d 3e 0f 22 b4 3e a0 ed fe 3d 16 dd 8a 3d
       0.1699025 0.35182235 0.12447667 0.0678045
0000a0 82 31 4f bd a3 bc 36 be bf a1 1a bd 5c af 18 bc
       -0.050584324 -0.17845397 -0.03775191 -0.009319153
0000b0 9a 92 7b bd 0a 06 eb 3e 58 68 73 3f be 1c 23 40
       -0.061419107 0.45903045 0.9508109 2.5486293
0000c0 be 28 98 3e fa d3 10 3e d9 21 eb 3c 79 50 cf bd
       0.29718584 0.14143363 0.028702663 -0.10122771
0000d0 14 a3 89 bd e8 6d 4f be db d4 2e 3d 52 bc 2b 3d
       -0.06720558 -0.2025677 0.042683464 0.041927643
0000e0 1a ea 16 bd ca 1a 91 bb e0 3d 26 bd 35 13 15 3d
       -0.03684435 -0.0044282423 -0.040586352 0.03639527
0000f0 9c 33 85 bd 5d 5b 47 bb db f1 8d bc e9 2d 04 3d
       -0.06503984 -0.0030419447 -0.01732724 0.032270346
000100 60 9b ed 3e 7f fb 0f 3d 48 6a 49 bd a0 f7 c0 3a
       0.46407604 0.035151955 -0.049173623 0.0014722236
000110 d0 1b 1e be 6c 2a 25 3e a3 39 82 3d 73 ca 1e bd
       -0.15440297 0.16129464 0.063586496 -0.03876729
000120 6e 96 13 3d d1 bc 1f 3e 8f 7e e8 3d ff a1 f5 3a
       0.036032133 0.15599371 0.11352264 0.0018740295
000130 b0 6d 70 3c f0 74 f4 bd 0a 07 8f bb bc 42 df 3b
       0.014674589 -0.119363666 -0.004364853 0.0068133753
000140 dc 18 4f bd 58 49 82 3d 48 fb af 3d 73 c4 c2 bb
       -0.050560817 0.063616455 0.0859285 -0.0059438287
000150 14 3a 47 3d 9a ef cb bd 03 23 91 bc 6b 69 4f bc
       0.048639372 -0.0995781 -0.01771689 -0.012659411
000160 96 ac 8b bd fd 18 e6 3c 57 06 25 3c c0 e1 0a bd
       -0.068200275 0.028088087 0.010072312 -0.0339067
000170 94 99 f5 bc 84 07 37 bc 48 8b f4 bb 11 a2 4c bd
       -0.029980458 -0.011171225 -0.0074628927 -0.049959246
000180 67 fa 02 bd 31 91 00 bd 99 9b 61 bd 94 5b f2 be
       -0.031977084 -0.031388465 -0.05508003 -0.47335494
000190 64 e5 e3 bd 29 0f 0b 3e aa c3 4a be 2a 2a 81 bd
       -0.11127737 0.13580002 -0.19801202 -0.0630687
0001a0 dc ae 6a bc d4 e8 d5 be 8e 73 39 bd 1f 25 d7 bd
       -0.014323916 -0.41779196 -0.045276217 -0.10505127
0001b0 37 11 63 be 60 44 7c be 81 2f 73 bf 60 42 b8 bd
       -0.22174536 -0.24635458 -0.9499436 -0.08997035
0001c0 2c 6b b5 bd 28 29 93 3e e0 66 77 3e b8 73 2f 3c
       -0.08858332 0.28742337 0.24160337 0.010708742
0001d0 c1 4d e8 3d 1e 4a 67 3d 03 68 aa 3e d6 0a e8 3e
       0.113429554 0.056467168 0.3328248 0.45320767
0001e0 f4 a4 48 3c 73 04 d3 bc 30 1c 36 be a8 71 af bc
       0.012246359 -0.025758957 -0.1778419 -0.0214165
0001f0 7e 0d 07 bd 5b 8b 13 bd ff 43 a2 3c b4 d4 56 3d
       -0.03297185 -0.03602157 0.019807814 0.052448943
000200 b0 9e 1a bd 9e 39 1c 3d 22 be c1 bc 77 98 6a bd
       -0.037748992 0.038140886 -0.023650233 -0.057274308
000210 85 4b 9c ba 42 bc 96 bc 2a 39 e2 bc bc 05 27 3b
       -0.0011924362 -0.018400315 -0.027615149 0.0025485596
000220 46 e0 63 3d 35 da 80 3d 2e 57 7d 3d 14 d7 f4 3c
       0.055633806 0.0629162 0.06185072 0.029887713
000230 62 1f 6a 3d 3d 25 2f 3d 8a 1f 5d bd 06 ec 7f 3d
       0.057158835 0.042760123 -0.053985156 0.06248095
000240 67 b3 66 bf 3a e0 f9 bb 52 fb 12 3e 58 ad a9 be
       -0.90117496 -0.007625607 0.14353684 -0.33140063
000250 79 91 07 bd ae 97 c5 bd 6a a8 e6 bd 39 4c 82 3d
       -0.033097718 -0.09648071 -0.11262591 0.063621946
000260 cb cf 8d 3d 19 a8 eb 3e ab c5 46 3e 32 aa aa 3d
       0.06924399 0.46026686 0.19411342 0.083332434
000270 69 3b 88 3e d1 f6 43 3d 15 c1 1c be 9f 65 08 be
       0.26607826 0.047842804 -0.1530803 -0.13320015
000280 98 c9 d9 bc 43 c4 36 3d c8 c1 31 3d 69 17 86 3d
       -0.026585385 0.044620764 0.043397695 0.06547434
000290 5c b1 52 bc 51 1e cd bc 6f 2a 84 bc 21 c4 94 38
       -0.012859669 -0.02503887 -0.016133515 7.093722e-05
0002a0 f4 a4 8d 3c 65 7c 3f 3d e7 5c dd 3d b2 c6 44 3d
       0.01729057 0.04674949 0.10808735 0.048041053
0002b0 35 53 39 bd a6 a9 e3 bb 89 ed 88 3d f0 91 77 bb
       -0.045245368 -0.006947714 0.06685931 -0.0037776195
0002c0 54 e5 06 bd 57 1d 07 3d 0d 50 8c 3d 05 eb 00 3d
       -0.032933548 0.032986965 0.06851206 0.031474132
0002d0 7e 2d 32 3d 83 78 40 bc 62 25 5b bc 8c 42 83 bc
       0.043500416 -0.011747482 -0.013375612 -0.016022943
0002e0 7a 08 32 3d fe a3 2c 3d ed f2 54 bd 6c a6 c9 bc
       0.043465115 0.042148583 -0.051989485 -0.024615489
0002f0 fb cd 6a bd 91 0e 81 3d fc 33 a2 3d 97 a3 96 3d
       -0.057325345 0.063016064 0.079200715 0.07355421
000300 da f3 17 bd 50 cb bd bd 34 03 23 be 46 db 99 bc
       -0.03709779 -0.092672944 -0.1591919 -0.018781316
000310 d1 ed 30 bd 3d 56 be 3b a6 58 44 3d c1 04 9c be
       -0.04319555 0.0058086202 0.047936104 -0.30472377
000320 1c 77 26 be 2a 83 92 3c 87 60 57 be da cb 2f be
       -0.16256374 0.01788481 -0.21032916 -0.17167607
000330 8e c7 3e 3e f7 19 f7 3d c5 b3 a9 be 6b 8c a0 bd
       0.18630812 0.12065499 -0.33144966 -0.078392826
000340 be dc 81 3d 65 6e 2d 3d 64 15 5d 3d 14 26 07 bc
       0.06340931 0.04234161 0.053975478 -0.008248825
000350 a8 ed cc bd e9 70 c7 bd 6e 92 11 3d c0 b0 e4 bd
       -0.10006267 -0.09738333 0.035540037 -0.11166525
000360 81 1c 5e 3b 2a 92 65 3e ba e9 f9 3d 61 48 04 bd
       0.0033891501 0.22419038 0.12202783 -0.03229559
000370 8d 27 c8 3d 28 10 0b bd 5a 83 9b bc cc 53 ff 3c
       0.09773169 -0.033950955 -0.018983532 0.031167887
000380 d9 e7 b1 bc e0 d8 0c bc 18 6a d8 bc 87 e5 51 3d
       -0.021716999 -0.008596629 -0.026417777 0.051244285
000390 95 6d 05 3d 24 61 79 bc 57 aa 08 bd e9 5a dc 3c
       0.03257521 -0.015220914 -0.033365574 0.026898818
0003a0 54 d0 b4 bc 99 59 b8 3c 09 eb 96 3e 90 a2 5e 3e
       -0.022071995 0.022503661 0.29476193 0.217417
0003b0 0d 65 bf 3d 4c 67 ae 3c cb 7b 8e bd 44 df d2 be
       0.09345446 0.02128949 -0.069572054 -0.41185963
0003c0 a6 2f e8 bd 9c 6c 0b bd cd a3 94 be 4d 51 72 3e
       -0.11337213 -0.034039125 -0.2903122 0.23663826
0003d0 db 8f 0f 3f 6f 1c 8f 3e db 63 dd 3b 53 ff 02 be
       0.5607888 0.2795138 0.0067562885 -0.12792711
0003e0 71 af bf ba f3 62 8c 3d 1c d8 a6 bd 70 c0 d2 bd
       -0.0014624429 0.068548106 -0.08146688 -0.10290611
0003f0 81 d7 00 be 04 55 9b 3d dd 25 84 bf 48 b2 30 be
       -0.12582208 0.07584575 -1.0324055 -0.17255509

bias f4 [16]
000000 ae 01 90 3d 42 a9 ef 3d 3c bd 85 3c c2 8c 84 bb
       0.070315704 0.11702205 0.016325586 -0.0040451
000010 d6 f0 56 bd b3 15 6a bd a1 8d ac bd 51 a4 33 3d
       -0.052475773 -0.0571496 -0.08425451 0.043857876
000020 5c 25 7c bd 94 ef ad 3d 9c 8e 07 3d 01 d4 ee 3d
       -0.061559066 0.084929615 0.033094987 0.1166153
000030 bc ce d2 3d ce bb 2c 3d c2 ec 20 3d 7f 0c cd bb
       0.10293338 0.042171292 0.03928829 -0.006257593

weight f4 [16, 128]
000000 84 f0 a1 3c 44 13 62 be ea dc 5a bd bf 2e 4a 3f
       0.019768007 -0.22077662 -0.053433336 0.7897758
000010 01 7b bd bd 2e 9f 2a be c5 d6 e5 bd 30 21 f0 bc
       -0.09251977 -0.16662285 -0.11222605 -0.0293127
000020 03 bb 0e 3e 00 24 87 bc fd 75 32 bd 68 21 0a be
       0.13938527 -0.016496658 -0.043569554 -0.13489306
000030 68 61 ac bc 80 0f 1f 3c bf a9 cd 3b 06 dd 34 3e
       -0.02104254 0.009708285 0.006276339 0.17662439
000040 73 02 82 3d 9f 10 2f be ad d4 5b be ba 3f 5d 3e
       0.063481234 -0.17096184 -0.21467848 0.21606341
000050 9a 27 9b 3b 8d 59 3c bd 63 30 e4 bc 40 f1 97 3c
       0.0047349455 -0.04598384 -0.027855104 0.018547654
000060 8b 85 ea 3c 9a d7 4d bc 08 68 8f 3c f8 6e bb 3d
       0.028628131 -0.01256361 0.01750566 0.09152025
000070 0a a9 b2 3c 99 35 31 bd 42 c1 be bd f0 27 ef 3c
       0.02180912 -0.043264005 -0.09314205 0.029193848
000080 56 72 37 3d e3 3c 08 bd a8 f9 28 3c 91 9b 2e bd
       0.044786774 -0.03326119 0.010313429 -0.04262883
000090 4c df ff 3c 80 ef da ba ad 18 9a bd 17 25 72 bd
       0.031234406 -0.0016703457 -0.07524238 -0.059117403
0000a0 03 24 20 bd b7 16 05 bd ce f1 66 bd a6 5e 96 bd
       -0.039096843 -0.032492366 -0.056382947 -0.073422715
0000b0 61 af 99 3d 97 e3 9e 3d 62 75 71 bd 90 bd 88 bb
       0.07504154 0.07758253 -0.058949836 -0.0041729882
0000c0 6f 95 a7 bd 67 a2 8f 3d e1 4c 8a bd a1 09 e9 bc
       -0.08182799 0.07013398 -0.06752945 -0.028446974
0000d0 14 25 98 bc 39 9d a2 3d c0 27 fb ba 4c c0 72 bd
       -0.018572368 0.07940144 -0.0019161627 -0.05926542
0000e0 98 70 f4 be be ce 26 3e 50 d9 fa ba 0e 7e 03 3f
       -0.47742152 0.16289803 -0.001913825 0.5136422
0000f0 5e 11 93 bc c8 cb 47 be 23 39 b5 3c 4f b2 18 3d
       -0.017952617 -0.1951133 0.022121971 0.037279423
000100 be 55 0c 3d 38 66 81 bd 10 97 c4 3c bc 55 f5 bc
       0.034261458 -0.06318325 0.023997813 -0.029948108
000110 82 d9 04 3b f3 d5 97 3d 00 41 de 3b f0 96 2b 3c
       0.0020271246 0.074138544 0.006782651 0.010472998
000120 34 dd 1f bd 11 71 9a 3a c2 49 70 3d ea ec 8f 3d
       -0.039029315 0.0011782964 0.05866409 0.0702761
000130 dc c7 76 3d 0b a9 93 3d 1e 2d 2e 3d 10 76 f4 3c
       0.060249195 0.07209977 0.042523496 0.029841453
000140 08 84 15 3d bd 82 43 3d 75 0d 84 bd 8e c3 12 3e
       0.036502868 0.047732104 -0.06447879 0.1433241
000150 d0 74 44 3d 66 5c 74 3d ff 01 a5 3c 97 8b a7 3d
       0.047962964 0.05965843 0.020142553 0.081809215
000160 6c 94 bb bc bb e3 08 bd 1f e7 bd bd 86 26 2f 3e
       -0.022897922 -0.033420306 -0.092725985 0.1710454
000170 65 2e a3 bd 28 f9 99 3d 40 52 21 3d 86 10 c5 3c
       -0.079678334 0.07518226 0.03938508 0.02405573
000180 28 44 9d 3d 5d 6a 42 3d 9b 29 09 bd c2 29 e9 3d
       0.076790154 0.047464717 -0.033486944 0.11384918
000190 89 47 58 bc 16 71 ee bb df 8f ec bd ea 84 e6 3c
       -0.013200649 -0.0072766645 -0.11550879 0.02813955
0001a0 69 db 00 3d ce ed 5d 3d 60 bb 03 bd 58 e4 64 bd
       0.031459246 0.054181866 -0.032161117 -0.055881828
0001b0 7e c9 af 3b 02 20 60 bd ea 5c b2 bc 14 6d 6a 3d
       0.005364596 -0.054718025 -0.02177282 0.05723293
0001c0 be 8a 0f bd 37 66 a1 3c 49 b8 bc bd 81 3d e4 3c
       -0.035044424 0.01970206 -0.09214837 0.027861359
0001d0 e9 d6 31 bd dd 9b b3 3d 86 2f c1 bd 7c 16 97 3d
       -0.043417845 0.08769963 -0.094328925 0.073773354
0001e0 90 73 5f bc ce fd 1e bd b8 74 c3 3b aa 2b 74 3d
       -0.013638392 -0.038816266 0.0059648417 0.059611954
0001f0 60 8b 9c bd db a8 85 bd 20 0d 35 3d 8c ba 94 3c
       -0.07643771 -0.06526347 0.04420197 0.018155359
000200 32 64 91 3d 7d 27 99 3d 11 2d 1b 3d 86 be f2 bc
       0.07099189 0.07478235 0.037884776 -0.029631864
000210 c4 56 82 bd 9c cb 8b 3d f7 53 1b 3d 42 b2 8c bd
       -0.063642055 0.06825945 0.037921872 -0.068699375
000220 49 9c bb bc 50 9f db 3b 75 38 16 bc 1f ca 31 bd
       -0.022901671 0.006702341 -0.009168734 -0.04340565
000230 4f dc 5d bd 80 75 41 3d 9e 64 86 3c 24 d9 a8 bd
       -0.05416518 0.047231197 0.0164054 -0.08244541
000240 43 74 85 3c 95 d9 be bd ea 2d c6 bc 1d 92 bf bd
       0.01629079 -0.09318844 -0.024191815 -0.09354041
000250 8f 30 b4 3c 74 f9 56 bd 6b ba 9d bd 0d 21 21 bd
       0.02199581 -0.05248399 -0.07701572 -0.03933816
000260 84 58 04 bd 6a be 02 3d 4f 93 86 bd 40 e8 82 3d
       -0.032310978 0.031919874 -0.06571066 0.063919544
000270 1b e0 8b bd 4c 97 97 bc f1 5e 99 3d b1 c8 4c 3d
       -0.06829854 -0.018504761 0.07488812 0.04999608
000280 c8 bb d1 bc 77 d0 a2 bd 46 b6 72 3d b7 1a 8e 3d
       -0.025602236 -0.07949918 0.05925586 0.06938689
000290 1f 83 44 bd 28 f7 b5 3c c0 41 f9 3a 28 3a 8c 3c
       -0.04797661 0.02221258 0.0019016787 0.017117575
0002a0 4f 50 7b bd 68 aa 13 3c f4 4b 82 bd b3 75 8c bd
       -0.061355885 0.009012796 -0.06362143 -0.06858387
0002b0 74 f6 04 bd f0 4d 96 3b fa d8 77 bd c5 6e 84 3d
       -0.0324616 0.0045869276 -0.06050966 0.0646644
0002c0 56 09 2c 3d 25 8c 8e 3d 8a 27 84 bd 89 cf 8b 3d
       0.04200109 0.06960324 -0.06452854 0.068266936
0002d0 b3 8e b0 3d b0 ba e1 3b b0 b0 e3 3c e0 46 05 bc
       0.08620968 0.00688871 0.027794212 -0.008134574
0002e0 40 d8 d7 bb 39 c3 a3 bd 88 0d 84 3c fb 4b 5b bd
       -0.0065870583 -0.0799622 0.016119733 -0.053539257
0002f0 e0 d5 09 3d 34 57 d2 3c 9a 28 7a 3d 7a 86 33 3d
       0.033651233 0.025676347 0.061073877 0.04382942
000300 b4 e3 47 bd ef 60 86 3d 30 d5 e2 3b ee c7 4c 3d
       -0.04880114 0.06561457 0.0069223866 0.049995355
000310 d8 a0 1e 3c f3 cd 1b bd 70 f7 dc 3c ef 65 87 3d
       0.009681903 -0.038038205 0.026973456 0.06611239
000320 7d 98 4e bd 16 34 88 bd 42 67 8f 3c 61 c9 45 bd
       -0.050438393 -0.066505596 0.017505292 -0.048287753
000330 6b 89 23 bd 1f a6 ca 3c 19 2b 80 bd da e2 8c bb
       -0.039925974 0.024737416 -0.0625822 -0.0042995038
000340 0e 37 49 3d a2 bd b9 bc 85 83 9b 3d 91 11 61 3d
       0.04912477 -0.022673432 0.07593445 0.054948393
000350 d4 c9 a0 bd e6 c2 44 3d 47 a4 a1 bc 3e c5 a5 3b
       -0.07850996 0.048037432 -0.019731654 0.0050589135
000360 3a 94 b0 bd 77 03 ac bc d9 f9 3d 3d ce 66 f4 bc
       -0.08622022 -0.020997746 0.04638085 -0.029834177
000370 52 96 fd 3b 60 38 3f 3d 21 82 2c bc 7a 75 a1 ba
       0.007738867 0.046684623 -0.010529072 -0.0012318336
000380 cb ab 6a bd dc c4 50 bd 58 fd e1 3c a7 ca 1d bd
       -0.05729274 -0.05096899 0.027586624 -0.038523342
000390 9c bf b2 3b 67 e9 9b bd 5d 4a 12 bd f1 dd 87 3d
       0.0054549705 -0.07612877 -0.03571545 0.06634129
0003a0 ef 83 d5 3c c7 5c 90 3d 82 88 9e bd fd 33 a8 3b
       0.026063887 0.07048946 -0.077408805 0.0051331506
0003b0 49 0e 16 3c a9 11 72 3a 79 24 1f bc a1 b5 11 bd
       0.009158679 0.0009234199 -0.009713286 -0.035573605
0003c0 d5 41 93 bd f0 02 40 bd ea be 25 bd f6 ae 34 bd
       -0.07190291 -0.0468778 -0.040465273 -0.04411217
0003d0 53 40 63 bc 1c d7 34 bd 2b cf fc 3c 4e 5e 17 3d
       -0.013870317 -0.044150457 0.030860504 0.03695517
0003e0 df 92 92 3d 16 84 a7 bc da 13 d5 3c 6f a4 90 3d
       0.0715692 -0.020448726 0.026010443 0.07062613
0003f0 30 77 9d bc 42 03 08 bc aa 73 0e bd ae 68 76 3d
       -0.019221872 -0.008301558 -0.034778275 0.060158424

bias f4 [16]
000000 9b 89 39 3d 31 43 ef 3c d0 76 02 3e 50 b2 a1 3c
       0.045297246 0.029206844 0.12740636 0.019738346
000010 df 33 9e 3c c5 3e c1 bd 81 af 38 3d ce 8d 90 bd
       0.019311843 -0.094358005 0.04508925 -0.07058297
000020 25 32 36 3e 8c dc 02 3e b5 9a 7a 3d bb 09 da bc
       0.17792566 0.12779444 0.061182696 -0.026615968
000030 2d 73 88 3d 5d e1 66 bb 59 a7 11 3e be 37 34 bd
       0.06662593 -0.0035229542 0.14223994 -0.043998472

weight f4 [1, 16]
000000 05 9f 83 3e 0d 32 49 be c2 89 68 3e 08 30 0f 3d
       0.2570726 -0.19647999 0.227088 0.034957916
000010 7f be cc 3e 5e c0 3b be e4 91 91 bd 6d 4f 5a bd
       0.39989087 -0.18335101 -0.071079046 -0.053298403
000020 42 d2 61 3e 1e 06 a7 3e b6 5a 68 3e ce e2 d7 bc
       0.22052863 0.32621855 0.22690853 -0.026353266
000030 fd 9f a3 3e e8 17 9f bd 96 d9 80 3e 3e b6 3e be
       0.31958 -0.07768232 0.25166005 -0.18624207
